…
2024-04-15 20:26:19,255 INFO: Dataset [FFHQsubDataset] - FFHQ_train is built.
2024-04-15 20:26:19,256 INFO: Training statistics:
	Number of train images: 5000
	Dataset enlarge ratio: 1
	Batch size per gpu: 8
	World size (gpu number): 1
	Require iter number per epoch: 625
	Total epochs: 480; iters: 300000.
2024-04-15 20:26:19,275 INFO: Dataset [PairedImageDataset] - FFHQ_val is built.
2024-04-15 20:26:19,275 INFO: Number of val images/folders in FFHQ_val: 400
2024-04-15 20:26:19,314 INFO: Network [RRDBNet] is created.
2024-04-15 20:26:19,408 INFO: Network: RRDBNet, with parameters: 2,018,755
2024-04-15 20:26:19,409 INFO: RRDBNet(
  (conv_first): Conv2d(3, 32, kernel_size=(3, 3), stride=(1, 1), padding=(1, 1))
  (body): Sequential(
    (0): RRDB(
      (rdb1): ResidualDenseBlock(
        (conv1): Conv2d(32, 16, kernel_size=(3, 3), stride=(1, 1), padding=(1, 1))
        (conv2): Conv2d(48, 16, kernel_size=(3, 3), stride=(1, 1), padding=(1, 1))
        (conv3): Conv2d(64, 16, kernel_size=(3, 3), stride=(1, 1), padding=(1, 1))
        (conv4): Conv2d(80, 16, kernel_size=(3, 3), stride=(1, 1), padding=(1, 1))
        (conv5): Conv2d(96, 32, kernel_size=(3, 3), stride=(1, 1), padding=(1, 1))
        (lrelu): LeakyReLU(negative_slope=0.2, inplace=True)
      )
      (rdb2): ResidualDenseBlock(
        (conv1): Conv2d(32, 16, kernel_size=(3, 3), stride=(1, 1), padding=(1, 1))
        (conv2): Conv2d(48, 16, kernel_size=(3, 3), stride=(1, 1), padding=(1, 1))
        (conv3): Conv2d(64, 16, kernel_size=(3, 3), stride=(1, 1), padding=(1, 1))
        (conv4): Conv2d(80, 16, kernel_size=(3, 3), stride=(1, 1), padding=(1, 1))
        (conv5): Conv2d(96, 32, kernel_size=(3, 3), stride=(1, 1), padding=(1, 1))
        (lrelu): LeakyReLU(negative_slope=0.2, inplace=True)
      )
      (rdb3): ResidualDenseBlock(
        (conv1): Conv2d(32, 16, kernel_size=(3, 3), stride=(1, 1), padding=(1, 1))
        (conv2): Conv2d(48, 16, kernel_size=(3, 3), stride=(1, 1), padding=(1, 1))
        (conv3): Conv2d(64, 16, kernel_size=(3, 3), stride=(1, 1), padding=(1, 1))
        (conv4): Conv2d(80, 16, kernel_size=(3, 3), stride=(1, 1), padding=(1, 1))
        (conv5): Conv2d(96, 32, kernel_size=(3, 3), stride=(1, 1), padding=(1, 1))
        (lrelu): LeakyReLU(negative_slope=0.2, inplace=True)
      )
    )
    (1): RRDB(
      (rdb1): ResidualDenseBlock(
        (conv1): Conv2d(32, 16, kernel_size=(3, 3), stride=(1, 1), padding=(1, 1))
        (conv2): Conv2d(48, 16, kernel_size=(3, 3), stride=(1, 1), padding=(1, 1))
        (conv3): Conv2d(64, 16, kernel_size=(3, 3), stride=(1, 1), padding=(1, 1))
        (conv4): Conv2d(80, 16, kernel_size=(3, 3), stride=(1, 1), padding=(1, 1))
        (conv5): Conv2d(96, 32, kernel_size=(3, 3), stride=(1, 1), padding=(1, 1))
        (lrelu): LeakyReLU(negative_slope=0.2, inplace=True)
      )
      (rdb2): ResidualDenseBlock(
        (conv1): Conv2d(32, 16, kernel_size=(3, 3), stride=(1, 1), padding=(1, 1))
        (conv2): Conv2d(48, 16, kernel_size=(3, 3), stride=(1, 1), padding=(1, 1))
        (conv3): Conv2d(64, 16, kernel_size=(3, 3), stride=(1, 1), padding=(1, 1))
        (conv4): Conv2d(80, 16, kernel_size=(3, 3), stride=(1, 1), padding=(1, 1))
        (conv5): Conv2d(96, 32, kernel_size=(3, 3), stride=(1, 1), padding=(1, 1))
        (lrelu): LeakyReLU(negative_slope=0.2, inplace=True)
      )
      (rdb3): ResidualDenseBlock(
        (conv1): Conv2d(32, 16, kernel_size=(3, 3), stride=(1, 1), padding=(1, 1))
        (conv2): Conv2d(48, 16, kernel_size=(3, 3), stride=(1, 1), padding=(1, 1))
        (conv3): Conv2d(64, 16, kernel_size=(3, 3), stride=(1, 1), padding=(1, 1))
        (conv4): Conv2d(80, 16, kernel_size=(3, 3), stride=(1, 1), padding=(1, 1))
        (conv5): Conv2d(96, 32, kernel_size=(3, 3), stride=(1, 1), padding=(1, 1))
        (lrelu): LeakyReLU(negative_slope=0.2, inplace=True)
      )
    )
    (2): RRDB(
      (rdb1): ResidualDenseBlock(
        (conv1): Conv2d(32, 16, kernel_size=(3, 3), stride=(1, 1), padding=(1, 1))
        (conv2): Conv2d(48, 16, kernel_size=(3, 3), stride=(1, 1), padding=(1, 1))
        (conv3): Conv2d(64, 16, kernel_size=(3, 3), stride=(1, 1), padding=(1, 1))
        (conv4): Conv2d(80, 16, kernel_size=(3, 3), stride=(1, 1), padding=(1, 1))
        (conv5): Conv2d(96, 32, kernel_size=(3, 3), stride=(1, 1), padding=(1, 1))
        (lrelu): LeakyReLU(negative_slope=0.2, inplace=True)
      )
      (rdb2): ResidualDenseBlock(
        (conv1): Conv2d(32, 16, kernel_size=(3, 3), stride=(1, 1), padding=(1, 1))
        (conv2): Conv2d(48, 16, kernel_size=(3, 3), stride=(1, 1), padding=(1, 1))
        (conv3): Conv2d(64, 16, kernel_size=(3, 3), stride=(1, 1), padding=(1, 1))
        (conv4): Conv2d(80, 16, kernel_size=(3, 3), stride=(1, 1), padding=(1, 1))
        (conv5): Conv2d(96, 32, kernel_size=(3, 3), stride=(1, 1), padding=(1, 1))
        (lrelu): LeakyReLU(negative_slope=0.2, inplace=True)
      )
      (rdb3): ResidualDenseBlock(
        (conv1): Conv2d(32, 16, kernel_size=(3, 3), stride=(1, 1), padding=(1, 1))
        (conv2): Conv2d(48, 16, kernel_size=(3, 3), stride=(1, 1), padding=(1, 1))
        (conv3): Conv2d(64, 16, kernel_size=(3, 3), stride=(1, 1), padding=(1, 1))
        (conv4): Conv2d(80, 16, kernel_size=(3, 3), stride=(1, 1), padding=(1, 1))
        (conv5): Conv2d(96, 32, kernel_size=(3, 3), stride=(1, 1), padding=(1, 1))
        (lrelu): LeakyReLU(negative_slope=0.2, inplace=True)
      )
    )
    (3): RRDB(
      (rdb1): ResidualDenseBlock(
        (conv1): Conv2d(32, 16, kernel_size=(3, 3), stride=(1, 1), padding=(1, 1))
        (conv2): Conv2d(48, 16, kernel_size=(3, 3), stride=(1, 1), padding=(1, 1))
        (conv3): Conv2d(64, 16, kernel_size=(3, 3), stride=(1, 1), padding=(1, 1))
        (conv4): Conv2d(80, 16, kernel_size=(3, 3), stride=(1, 1), padding=(1, 1))
        (conv5): Conv2d(96, 32, kernel_size=(3, 3), stride=(1, 1), padding=(1, 1))
        (lrelu): LeakyReLU(negative_slope=0.2, inplace=True)
      )
      (rdb2): ResidualDenseBlock(
        (conv1): Conv2d(32, 16, kernel_size=(3, 3), stride=(1, 1), padding=(1, 1))
        (conv2): Conv2d(48, 16, kernel_size=(3, 3), stride=(1, 1), padding=(1, 1))
        (conv3): Conv2d(64, 16, kernel_size=(3, 3), stride=(1, 1), padding=(1, 1))
        (conv4): Conv2d(80, 16, kernel_size=(3, 3), stride=(1, 1), padding=(1, 1))
        (conv5): Conv2d(96, 32, kernel_size=(3, 3), stride=(1, 1), padding=(1, 1))
        (lrelu): LeakyReLU(negative_slope=0.2, inplace=True)
      )
      (rdb3): ResidualDenseBlock(
        (conv1): Conv2d(32, 16, kernel_size=(3, 3), stride=(1, 1), padding=(1, 1))
        (conv2): Conv2d(48, 16, kernel_size=(3, 3), stride=(1, 1), padding=(1, 1))
        (conv3): Conv2d(64, 16, kernel_size=(3, 3), stride=(1, 1), padding=(1, 1))
        (conv4): Conv2d(80, 16, kernel_size=(3, 3), stride=(1, 1), padding=(1, 1))
        (conv5): Conv2d(96, 32, kernel_size=(3, 3), stride=(1, 1), padding=(1, 1))
        (lrelu): LeakyReLU(negative_slope=0.2, inplace=True)
      )
    )
    (4): RRDB(
      (rdb1): ResidualDenseBlock(
        (conv1): Conv2d(32, 16, kernel_size=(3, 3), stride=(1, 1), padding=(1, 1))
        (conv2): Conv2d(48, 16, kernel_size=(3, 3), stride=(1, 1), padding=(1, 1))
        (conv3): Conv2d(64, 16, kernel_size=(3, 3), stride=(1, 1), padding=(1, 1))
        (conv4): Conv2d(80, 16, kernel_size=(3, 3), stride=(1, 1), padding=(1, 1))
        (conv5): Conv2d(96, 32, kernel_size=(3, 3), stride=(1, 1), padding=(1, 1))
        (lrelu): LeakyReLU(negative_slope=0.2, inplace=True)
      )
      (rdb2): ResidualDenseBlock(
        (conv1): Conv2d(32, 16, kernel_size=(3, 3), stride=(1, 1), padding=(1, 1))
        (conv2): Conv2d(48, 16, kernel_size=(3, 3), stride=(1, 1), padding=(1, 1))
        (conv3): Conv2d(64, 16, kernel_size=(3, 3), stride=(1, 1), padding=(1, 1))
        (conv4): Conv2d(80, 16, kernel_size=(3, 3), stride=(1, 1), padding=(1, 1))
        (conv5): Conv2d(96, 32, kernel_size=(3, 3), stride=(1, 1), padding=(1, 1))
        (lrelu): LeakyReLU(negative_slope=0.2, inplace=True)
      )
      (rdb3): ResidualDenseBlock(
        (conv1): Conv2d(32, 16, kernel_size=(3, 3), stride=(1, 1), padding=(1, 1))
        (conv2): Conv2d(48, 16, kernel_size=(3, 3), stride=(1, 1), padding=(1, 1))
        (conv3): Conv2d(64, 16, kernel_size=(3, 3), stride=(1, 1), padding=(1, 1))
        (conv4): Conv2d(80, 16, kernel_size=(3, 3), stride=(1, 1), padding=(1, 1))
        (conv5): Conv2d(96, 32, kernel_size=(3, 3), stride=(1, 1), padding=(1, 1))
        (lrelu): LeakyReLU(negative_slope=0.2, inplace=True)
      )
    )
    (5): RRDB(
      (rdb1): ResidualDenseBlock(
        (conv1): Conv2d(32, 16, kernel_size=(3, 3), stride=(1, 1), padding=(1, 1))
        (conv2): Conv2d(48, 16, kernel_size=(3, 3), stride=(1, 1), padding=(1, 1))
        (conv3): Conv2d(64, 16, kernel_size=(3, 3), stride=(1, 1), padding=(1, 1))
        (conv4): Conv2d(80, 16, kernel_size=(3, 3), stride=(1, 1), padding=(1, 1))
        (conv5): Conv2d(96, 32, kernel_size=(3, 3), stride=(1, 1), padding=(1, 1))
        (lrelu): LeakyReLU(negative_slope=0.2, inplace=True)
      )
      (rdb2): ResidualDenseBlock(
        (conv1): Conv2d(32, 16, kernel_size=(3, 3), stride=(1, 1), padding=(1, 1))
        (conv2): Conv2d(48, 16, kernel_size=(3, 3), stride=(1, 1), padding=(1, 1))
        (conv3): Conv2d(64, 16, kernel_size=(3, 3), stride=(1, 1), padding=(1, 1))
        (conv4): Conv2d(80, 16, kernel_size=(3, 3), stride=(1, 1), padding=(1, 1))
        (conv5): Conv2d(96, 32, kernel_size=(3, 3), stride=(1, 1), padding=(1, 1))
        (lrelu): LeakyReLU(negative_slope=0.2, inplace=True)
      )
      (rdb3): ResidualDenseBlock(
        (conv1): Conv2d(32, 16, kernel_size=(3, 3), stride=(1, 1), padding=(1, 1))
        (conv2): Conv2d(48, 16, kernel_size=(3, 3), stride=(1, 1), padding=(1, 1))
        (conv3): Conv2d(64, 16, kernel_size=(3, 3), stride=(1, 1), padding=(1, 1))
        (conv4): Conv2d(80, 16, kernel_size=(3, 3), stride=(1, 1), padding=(1, 1))
        (conv5): Conv2d(96, 32, kernel_size=(3, 3), stride=(1, 1), padding=(1, 1))
        (lrelu): LeakyReLU(negative_slope=0.2, inplace=True)
      )
    )
    (6): RRDB(
      (rdb1): ResidualDenseBlock(
        (conv1): Conv2d(32, 16, kernel_size=(3, 3), stride=(1, 1), padding=(1, 1))
        (conv2): Conv2d(48, 16, kernel_size=(3, 3), stride=(1, 1), padding=(1, 1))
        (conv3): Conv2d(64, 16, kernel_size=(3, 3), stride=(1, 1), padding=(1, 1))
        (conv4): Conv2d(80, 16, kernel_size=(3, 3), stride=(1, 1), padding=(1, 1))
        (conv5): Conv2d(96, 32, kernel_size=(3, 3), stride=(1, 1), padding=(1, 1))
        (lrelu): LeakyReLU(negative_slope=0.2, inplace=True)
      )
      (rdb2): ResidualDenseBlock(
        (conv1): Conv2d(32, 16, kernel_size=(3, 3), stride=(1, 1), padding=(1, 1))
        (conv2): Conv2d(48, 16, kernel_size=(3, 3), stride=(1, 1), padding=(1, 1))
        (conv3): Conv2d(64, 16, kernel_size=(3, 3), stride=(1, 1), padding=(1, 1))
        (conv4): Conv2d(80, 16, kernel_size=(3, 3), stride=(1, 1), padding=(1, 1))
        (conv5): Conv2d(96, 32, kernel_size=(3, 3), stride=(1, 1), padding=(1, 1))
        (lrelu): LeakyReLU(negative_slope=0.2, inplace=True)
      )
      (rdb3): ResidualDenseBlock(
        (conv1): Conv2d(32, 16, kernel_size=(3, 3), stride=(1, 1), padding=(1, 1))
        (conv2): Conv2d(48, 16, kernel_size=(3, 3), stride=(1, 1), padding=(1, 1))
        (conv3): Conv2d(64, 16, kernel_size=(3, 3), stride=(1, 1), padding=(1, 1))
        (conv4): Conv2d(80, 16, kernel_size=(3, 3), stride=(1, 1), padding=(1, 1))
        (conv5): Conv2d(96, 32, kernel_size=(3, 3), stride=(1, 1), padding=(1, 1))
        (lrelu): LeakyReLU(negative_slope=0.2, inplace=True)
      )
    )
    (7): RRDB(
      (rdb1): ResidualDenseBlock(
        (conv1): Conv2d(32, 16, kernel_size=(3, 3), stride=(1, 1), padding=(1, 1))
        (conv2): Conv2d(48, 16, kernel_size=(3, 3), stride=(1, 1), padding=(1, 1))
        (conv3): Conv2d(64, 16, kernel_size=(3, 3), stride=(1, 1), padding=(1, 1))
        (conv4): Conv2d(80, 16, kernel_size=(3, 3), stride=(1, 1), padding=(1, 1))
        (conv5): Conv2d(96, 32, kernel_size=(3, 3), stride=(1, 1), padding=(1, 1))
        (lrelu): LeakyReLU(negative_slope=0.2, inplace=True)
      )
      (rdb2): ResidualDenseBlock(
        (conv1): Conv2d(32, 16, kernel_size=(3, 3), stride=(1, 1), padding=(1, 1))
        (conv2): Conv2d(48, 16, kernel_size=(3, 3), stride=(1, 1), padding=(1, 1))
        (conv3): Conv2d(64, 16, kernel_size=(3, 3), stride=(1, 1), padding=(1, 1))
        (conv4): Conv2d(80, 16, kernel_size=(3, 3), stride=(1, 1), padding=(1, 1))
        (conv5): Conv2d(96, 32, kernel_size=(3, 3), stride=(1, 1), padding=(1, 1))
        (lrelu): LeakyReLU(negative_slope=0.2, inplace=True)
      )
      (rdb3): ResidualDenseBlock(
        (conv1): Conv2d(32, 16, kernel_size=(3, 3), stride=(1, 1), padding=(1, 1))
        (conv2): Conv2d(48, 16, kernel_size=(3, 3), stride=(1, 1), padding=(1, 1))
        (conv3): Conv2d(64, 16, kernel_size=(3, 3), stride=(1, 1), padding=(1, 1))
        (conv4): Conv2d(80, 16, kernel_size=(3, 3), stride=(1, 1), padding=(1, 1))
        (conv5): Conv2d(96, 32, kernel_size=(3, 3), stride=(1, 1), padding=(1, 1))
        (lrelu): LeakyReLU(negative_slope=0.2, inplace=True)
      )
    )
    (8): RRDB(
      (rdb1): ResidualDenseBlock(
        (conv1): Conv2d(32, 16, kernel_size=(3, 3), stride=(1, 1), padding=(1, 1))
        (conv2): Conv2d(48, 16, kernel_size=(3, 3), stride=(1, 1), padding=(1, 1))
        (conv3): Conv2d(64, 16, kernel_size=(3, 3), stride=(1, 1), padding=(1, 1))
        (conv4): Conv2d(80, 16, kernel_size=(3, 3), stride=(1, 1), padding=(1, 1))
        (conv5): Conv2d(96, 32, kernel_size=(3, 3), stride=(1, 1), padding=(1, 1))
        (lrelu): LeakyReLU(negative_slope=0.2, inplace=True)
      )
      (rdb2): ResidualDenseBlock(
        (conv1): Conv2d(32, 16, kernel_size=(3, 3), stride=(1, 1), padding=(1, 1))
        (conv2): Conv2d(48, 16, kernel_size=(3, 3), stride=(1, 1), padding=(1, 1))
        (conv3): Conv2d(64, 16, kernel_size=(3, 3), stride=(1, 1), padding=(1, 1))
        (conv4): Conv2d(80, 16, kernel_size=(3, 3), stride=(1, 1), padding=(1, 1))
        (conv5): Conv2d(96, 32, kernel_size=(3, 3), stride=(1, 1), padding=(1, 1))
        (lrelu): LeakyReLU(negative_slope=0.2, inplace=True)
      )
      (rdb3): ResidualDenseBlock(
        (conv1): Conv2d(32, 16, kernel_size=(3, 3), stride=(1, 1), padding=(1, 1))
        (conv2): Conv2d(48, 16, kernel_size=(3, 3), stride=(1, 1), padding=(1, 1))
        (conv3): Conv2d(64, 16, kernel_size=(3, 3), stride=(1, 1), padding=(1, 1))
        (conv4): Conv2d(80, 16, kernel_size=(3, 3), stride=(1, 1), padding=(1, 1))
        (conv5): Conv2d(96, 32, kernel_size=(3, 3), stride=(1, 1), padding=(1, 1))
        (lrelu): LeakyReLU(negative_slope=0.2, inplace=True)
      )
    )
    (9): RRDB(
      (rdb1): ResidualDenseBlock(
        (conv1): Conv2d(32, 16, kernel_size=(3, 3), stride=(1, 1), padding=(1, 1))
        (conv2): Conv2d(48, 16, kernel_size=(3, 3), stride=(1, 1), padding=(1, 1))
        (conv3): Conv2d(64, 16, kernel_size=(3, 3), stride=(1, 1), padding=(1, 1))
        (conv4): Conv2d(80, 16, kernel_size=(3, 3), stride=(1, 1), padding=(1, 1))
        (conv5): Conv2d(96, 32, kernel_size=(3, 3), stride=(1, 1), padding=(1, 1))
        (lrelu): LeakyReLU(negative_slope=0.2, inplace=True)
      )
      (rdb2): ResidualDenseBlock(
        (conv1): Conv2d(32, 16, kernel_size=(3, 3), stride=(1, 1), padding=(1, 1))
        (conv2): Conv2d(48, 16, kernel_size=(3, 3), stride=(1, 1), padding=(1, 1))
        (conv3): Conv2d(64, 16, kernel_size=(3, 3), stride=(1, 1), padding=(1, 1))
        (conv4): Conv2d(80, 16, kernel_size=(3, 3), stride=(1, 1), padding=(1, 1))
        (conv5): Conv2d(96, 32, kernel_size=(3, 3), stride=(1, 1), padding=(1, 1))
        (lrelu): LeakyReLU(negative_slope=0.2, inplace=True)
      )
      (rdb3): ResidualDenseBlock(
        (conv1): Conv2d(32, 16, kernel_size=(3, 3), stride=(1, 1), padding=(1, 1))
        (conv2): Conv2d(48, 16, kernel_size=(3, 3), stride=(1, 1), padding=(1, 1))
        (conv3): Conv2d(64, 16, kernel_size=(3, 3), stride=(1, 1), padding=(1, 1))
        (conv4): Conv2d(80, 16, kernel_size=(3, 3), stride=(1, 1), padding=(1, 1))
        (conv5): Conv2d(96, 32, kernel_size=(3, 3), stride=(1, 1), padding=(1, 1))
        (lrelu): LeakyReLU(negative_slope=0.2, inplace=True)
      )
    )
    (10): RRDB(
      (rdb1): ResidualDenseBlock(
        (conv1): Conv2d(32, 16, kernel_size=(3, 3), stride=(1, 1), padding=(1, 1))
        (conv2): Conv2d(48, 16, kernel_size=(3, 3), stride=(1, 1), padding=(1, 1))
        (conv3): Conv2d(64, 16, kernel_size=(3, 3), stride=(1, 1), padding=(1, 1))
        (conv4): Conv2d(80, 16, kernel_size=(3, 3), stride=(1, 1), padding=(1, 1))
        (conv5): Conv2d(96, 32, kernel_size=(3, 3), stride=(1, 1), padding=(1, 1))
        (lrelu): LeakyReLU(negative_slope=0.2, inplace=True)
      )
      (rdb2): ResidualDenseBlock(
        (conv1): Conv2d(32, 16, kernel_size=(3, 3), stride=(1, 1), padding=(1, 1))
        (conv2): Conv2d(48, 16, kernel_size=(3, 3), stride=(1, 1), padding=(1, 1))
        (conv3): Conv2d(64, 16, kernel_size=(3, 3), stride=(1, 1), padding=(1, 1))
        (conv4): Conv2d(80, 16, kernel_size=(3, 3), stride=(1, 1), padding=(1, 1))
        (conv5): Conv2d(96, 32, kernel_size=(3, 3), stride=(1, 1), padding=(1, 1))
        (lrelu): LeakyReLU(negative_slope=0.2, inplace=True)
      )
      (rdb3): ResidualDenseBlock(
        (conv1): Conv2d(32, 16, kernel_size=(3, 3), stride=(1, 1), padding=(1, 1))
        (conv2): Conv2d(48, 16, kernel_size=(3, 3), stride=(1, 1), padding=(1, 1))
        (conv3): Conv2d(64, 16, kernel_size=(3, 3), stride=(1, 1), padding=(1, 1))
        (conv4): Conv2d(80, 16, kernel_size=(3, 3), stride=(1, 1), padding=(1, 1))
        (conv5): Conv2d(96, 32, kernel_size=(3, 3), stride=(1, 1), padding=(1, 1))
        (lrelu): LeakyReLU(negative_slope=0.2, inplace=True)
      )
    )
  )
  (conv_body): Conv2d(32, 32, kernel_size=(3, 3), stride=(1, 1), padding=(1, 1))
  (conv_up1): Conv2d(32, 32, kernel_size=(3, 3), stride=(1, 1), padding=(1, 1))
  (conv_up2): Conv2d(32, 32, kernel_size=(3, 3), stride=(1, 1), padding=(1, 1))
  (conv_hr): Conv2d(32, 32, kernel_size=(3, 3), stride=(1, 1), padding=(1, 1))
  (conv_last): Conv2d(32, 3, kernel_size=(3, 3), stride=(1, 1), padding=(1, 1))
  (lrelu): LeakyReLU(negative_slope=0.2, inplace=True)
)
2024-04-15 20:26:19,422 INFO: Use Exponential Moving Average with decay: 0.999
2024-04-15 20:26:19,450 INFO: Network [RRDBNet] is created.
2024-04-15 20:26:20,538 INFO: Loss [L1Loss] is created.
2024-04-15 20:26:20,555 INFO: Model [RealESRNetModel] is created.
2024-04-15 20:26:33,531 INFO: Start training from epoch: 0, iter: 0
…
